model.pth (torch, 18152 bytes, 7 tensors)

model.0.weight f4 [64, 18]
00000000: 793d 113e f147 993d f4b4 a6bd 2e9e 49be
00000010: 550e 0a3d 48f5 683e 7d3e dc3d c670 bfbe
00000020: 25bf a7ba c5f3 cb3e 49a6 9cbe a559 fdbe
00000030: 7c49 88be 9331 8fbd 7f13 08be f66a 633d
00000040: c7b5 75be 6464 8abe 273c c1be 5dea 9ebd
00000050: 3296 693d b727 dd3d bd96 803d 442f 84be
00000060: d29d 2cbf 080d 98bd 7de5 4b3b b8b6 68be
00000070: 947d 7cbe 116c c4be 8667 913d 0edf 56bd
00000080: 703d c7bd b92f 803d 52c2 06bd 94d4 603e
00000090: d511 643e 45c5 ca3e 03bf a33e c5fb 783e
000000a0: 7761 b83e 7d47 43be 56fb 65be 630f 21be
000000b0: d861 12bf 0da2 a53e f9a1 87be 6f7e 013e
000000c0: ba21 123d fdbc f73c e015 2cbe b12b f4bd
000000d0: 434a bcbd e338 813d 0bc1 14be 7325 8f3e
000000e0: 8b31 b1be f6cd ef3d 24cb fd3e 08d5 c0be
000000f0: 0ee5 b73c b272 743d 901d 05bf 879f a63e
00000100: 7f68 04be 6299 90bd 32c6 073e 02af 333e
00000110: 7c57 0dbe 9273 633d 5891 9e3d 3597 f13d
00000120: a85d c9bd aec9 cbbd e83a 2b3e 502d c73c
00000130: e3a7 c93f 1891 3dbd a071 db3d 2659 053d
00000140: 5de0 0d3e 8dba b2bd ec8c 1fbe d870 903d
00000150: 10ae cdbc e4fc f63c e86d 2fbc 549c a6bc
00000160: 1f02 8ebc 7033 7b3d 55a9 493e 671c fe3e
00000170: c1e6 22bf 2d4d c23d 51f2 723d 06f4 663e
00000180: 0fc0 a9bd 21f4 f73e 81e3 093f 6f26 53be
00000190: e1bd b5be 297a d23d 4b7f a1be 552b ae3e
000001a0: 5f51 2c3d e68d 34be 64ee c0bd 1731 673d
000001b0: e217 8fbe 4d9e e9bc a531 b0be 30de 263d
000001c0: 6395 aa3e ecf4 9abe 2e59 253e c2a2 e13d
000001d0: b919 163f 4e23 ad3e 8b73 c4be 7b3a bb3e
000001e0: f676 e23d 9dc7 bebc c981 86bd 09c3 293d
000001f0: 23b6 213e c1a4 2a3e 7e21 523e 5372 2abe
00000200: cbd3 2cbe 995b 873e e455 49be 2275 ea3e
00000210: a34c 5a3c 89dc 7abd f207 ee3e 2e00 1bbf
00000220: 6fda eebe e536 073f 9e3b 263e d022 673e
00000230: 0ea9 d53d 6745 f3bd 081c 51be e8f2 ee3d
00000240: 80fb 153e d707 99bc e1e4 a93c fe89 6b3e
00000250: 0a74 a33d a806 8fbc 317c ca3c 39fb 133d
00000260: 0ba8 edbe 4433 2c3e b2df 79bd c672 883c
00000270: a8fa cc3d 21e5 8b3e 1bb9 0fbd 0797 953e
00000280: 952a b13c 33b1 26bd 7bb9 c53d 138e 80bd
00000290: a370 d1be dff1 f3be a39a 79be ebbd 373c
000002a0: 178e 47bf 110d 273e dbeb e13d a8c3 adbe
000002b0: c817 5abc eab8 9c3e f218 87bc ece7 82bd
000002c0: 2ae3 ae3e b8b0 95bd 98fa 003e 5e2c 133e
000002d0: e0fc 5cbe cd97 97be c4dd c83e 9ebd a3bd
000002e0: 09fb bf3e 3e75 68be d4ab 39be b9bf 583e
000002f0: 856a b3be f410 3a3e fd98 58be 04ce df3c
00000300: d9d1 663e 4239 b13e c4e8 01bb f083 c9bd
00000310: 1d1f 5b3d 4860 9e3e 2e4d 3e3e 4dd0 3d3e
00000320: aaa6 af3c f820 c63e dfad 7fbd 96b8 90be
00000330: 2156 1e3d d661 1abc 86ba d5be d836 0a3f
00000340: a43b a63d d9be cebd 04a4 5b3e 6d6f e63d
00000350: c513 c93d 4d37 f73d a30f 313e 957f 053e
00000360: 15c7 1f3e 6b71 9b3e 4010 67be afa2 28be
00000370: 67f4 79bf af8f b9bd 5f2e c53b 2da6 e63c
00000380: 4586 6fbe 1257 933e a087 8ebe 9510 2c3e
00000390: 526d 8b3d 7706 d0bd 1803 b33d 0510 90bd
000003a0: 2569 2cbd d93f 04be e010 6f3e 55ef 97be
000003b0: 15b9 a33e f16e 77be c91f ea3d 2362 933e
000003c0: d08f 9bbe fad4 a0bd 03f2 5b3c a8ea 633e
000003d0: 06a4 053f f216 9b3e 9efc 133d 3fb3 a6be
000003e0: 8773 86be 326a 543e 9a3e 07be b07b eebe
000003f0: e188 efbd db1c 8dbc 7b8d 47be e706 363e
0.14183606 0.07484425 -0.08139983 -0.19689247 0.033705074 0.22749817 0.10754106 -0.37390727
-0.0012798054 0.3983442 -0.30595616 -0.49482456 -0.26618564 -0.069918774 -0.13288687 0.055521928
-0.23995124 -0.27029717 -0.37741205 -0.07759545 0.057028003 0.10798591 0.06278751 -0.2581731
-0.67428315 -0.074243605 0.0031112127 -0.22725952 -0.24657279 -0.38363698 0.07099824 -0.052458815
-0.09728515 0.062591024 -0.032900162 0.21956092 0.22272427 0.3960363 0.31981668 0.24314792
0.3601186 -0.1907024 -0.22459158 -0.15728526 -0.5718055 0.32350197 -0.26490763 0.12645887
0.035676695 0.030241484 -0.1680522 -0.11922396 -0.09193852 0.063096784 -0.14526765 0.2795826
-0.3460811 0.11709206 0.49569046 -0.3766253 0.022448089 0.059679694 -0.51998234 0.32543585
-0.12930487 -0.070605054 0.132592 0.17547229 -0.13802904 0.05553014 0.07742566 0.117964186
-0.09832317 -0.09950577 0.1672169 0.024313599 1.575436 -0.04628095 0.107150316 0.03255572
0.13855119 -0.08726988 -0.15581101 0.07052773 -0.025107414 0.030149885 -0.010707356 -0.020338215
-0.017334996 0.06132835 0.19693501 0.49631044 -0.6363335 0.09487376 0.059313122 0.22554025
-0.082885854 0.48428443 0.5386277 -0.2062013 -0.3549643 0.102772065 -0.3154243 0.34017435
0.04206979 -0.17632255 -0.094204694 0.0564433 -0.2794791 -0.028517867 -0.34412876 0.04073924
0.33317098 -0.30264986 0.161473 0.11017372 0.58633 0.33815998 -0.38369402 0.36568055
0.11057846 -0.023288542 -0.06567723 0.041445766 0.15792136 0.16664411 0.20520589 -0.16645174
-0.16877668 0.2643707 -0.19661671 0.4579249 0.013323936 -0.061245475 0.46490437 -0.6054715
-0.46651027 0.5281814 0.1623368 0.22571874 0.10432635 -0.11878472 -0.2042085 0.116674244
0.14646721 -0.018680496 0.02073902 0.23001859 0.07981117 -0.017459229 0.024717422 0.036128256
-0.4641727 0.16816431 -0.061004348 0.01665629 0.100087464 0.2732325 -0.03508864 0.29216787
0.02162675 -0.040696334 0.09654518 -0.062770985 -0.40906247 -0.4764547 -0.24375395 0.011214714
-0.77951187 0.16313578 0.11031314 -0.33938336 -0.013311334 0.30609828 -0.016491387 -0.06391892
0.34157687 -0.07309097 0.12595594 0.14372393 -0.21580839 -0.29608002 0.39231694 -0.07995151
0.37496212 -0.22700974 -0.18131953 0.21166886 -0.35042205 0.1817053 -0.2115211 0.027319916
0.22540988 0.34613997 -0.0019822577 -0.09839618 0.05349647 0.30932832 0.18584129 0.18536492
0.021441776 0.38697028 -0.062421676 -0.28265828 0.038656358 -0.00942274 -0.4174387 0.53989935
0.08116844 -0.10094995 0.21449286 0.112517215 0.09818224 0.12071095 0.17291121 0.1303695
0.15603288 0.3035997 -0.22564793 -0.16468309 -0.97638553 -0.090606086 0.0060174908 0.02815541
-0.23391064 0.28777367 -0.2783785 0.168032 0.068079606 -0.10157483 0.087408245 -0.070343055
-0.04209246 -0.12914981 0.23346281 -0.29674783 0.31977144 -0.24163415 0.11431844 0.2878581
-0.30383158 -0.07853122 0.013424399 0.22257483 0.52203405 0.30290943 0.036129586 -0.3255863
-0.26260015 0.20743635 -0.13207474 -0.4657874 -0.116960295 -0.017225673 -0.19487564 0.1777607

model.0.bias f4 [64]
00000000: a6b3 0bbf b82a 18be ea56 8d3d 565a 853e
00000010: 297b 863e 116f d33d 3ec6 ec3d b329 74be
00000020: 92ce 053f ba60 26be 7e97 5bbe 12f7 7a3e
00000030: 9e89 12be db30 fcbd 7ee7 543e 65d1 02be
00000040: 74a8 163f 100d 68bf 8cf8 c53e 2836 993e
00000050: 75dd 34be 3e47 4e3e b08d 163f ce3e c43d
00000060: ea20 e63b 12cc a53e 9296 593e 57f7 abbe
00000070: 082e c23e 93cb 8b3e 4200 39be 16af d9bd
00000080: 950d 8e3e 9167 1bbe 0427 a8bd 023f 3abf
00000090: 24bd 053f 19b0 d83e ca9f 42be 1865 e2bd
000000a0: c936 24be eca2 d0be 22c9 7a3e 11e5 6f3d
000000b0: 89fe b83d ef27 e13e 103c 1b3e 9e67 2dbe
000000c0: 974c abbe 1e5b ad3e bade e43c 9bff 5a3d
000000d0: f2a9 80be d823 e9be 7799 5ebe 6922 3c3e
000000e0: 982e c13d 85ff 04be 06af c5be 1bbd c73e
000000f0: 526b fa3e c83d 10bf 352d b4be dc4a 11bf
-0.54570997 -0.14860046 0.06901343 0.26045483 0.2626584 0.103239186 0.11561249 -0.23844032
0.52268326 -0.16247836 -0.21444508 0.24508312 -0.1431031 -0.12314006 0.20791432 -0.1277519
0.5885079 -0.9064493 0.3866619 0.2992413 -0.17662604 0.20144364 0.5880995 0.095822915
0.0070229666 0.32382256 0.21248844 -0.33587143 0.37925744 0.27303752 -0.18066505 -0.10629098
0.27744737 -0.15176226 -0.08210567 -0.7275239 0.5224173 0.42321852 -0.19006267 -0.11054438
-0.16036524 -0.407493 0.24490789 0.058568064 0.09032924 0.4397578 0.15159631 -0.16934058
-0.3345687 0.3385858 0.027938236 0.05346642 -0.25129658 -0.4553516 -0.2173823 0.18372501
0.09432715 -0.12988098 -0.38610095 0.39011464 0.48910004 -0.5634427 -0.3519074 -0.5675485

model.2.weight f4 [32, 64]
00000000: 578a 07be 43b8 3fbe c07e e43d d1ee 4c3d
00000010: 0bfc 80bb 9ada 543d 345d 0c3e 6c97 d63d
00000020: 7077 07bc f694 acba 97bb 7dbc 9f0e 103d
00000030: afd7 213d d922 03be 6391 a63d b233 443e
00000040: ac74 eebd 62a3 7ebc 0972 0c3e c066 12be
00000050: 691c 813d 5500 a73d 321d fbbc 64fc 543d
00000060: c49d 163c 5b8f d3bc a5e0 1dbc 0ded 08be
00000070: f267 bc3c 73cd 82bd ffc0 29be 8346 dd3d
00000080: f79f 4d3d d7a4 753d 7c20 233d 756f 27be
00000090: ce3d b0bd a6f1 263d a01e 5b3d a975 93bd
000000a0: 604e 23be d106 833e 5a01 60ba ec75 863c
000000b0: 956b 98bd 25b4 d1bc b432 a33d ea21 a8bc
000000c0: 952e f4bc 4e5c 0f3e e8a7 a4bc 0b5b ebbd
000000d0: c9e5 5dbe a587 463d c100 b53e 7d86 083e
000000e0: 0672 723c 6655 28bc 5d06 c1bd 888a 80bd
000000f0: fb6e a2bd 67bf 06be 3b48 083e 9369 81be
00000100: 3b75 12bc 11b8 33be 5447 703d 3f5e 8fba
00000110: f6ee 5839 f48b f83d 0d43 7d3d 1cac 223e
00000120: d499 2d3c 4cff efbd c225 62bc ee7a 703c
00000130: a5f6 da3c 8fc4 9bbd 2cd0 fb3d 3839 703e
00000140: a148 e73c d866 e3bc b971 f33d def5 79be
00000150: aecc 54bb 32fe 1ebd 769f 93bd b156 ff3c
00000160: 2815 a13c c09c bfbd 5311 ae3d 5a89 e5bd
00000170: a8d3 613d a3fb aebc bc76 89bc f293 013e
00000180: 33b7 84bd 9451 27bd 04c3 be3d 70a9 82be
00000190: e39f 9dbc dc9e 123d b20e c13d f3b8 913d
000001a0: 82ca fabd db62 973e 050d 163d d7e8 673c
000001b0: a021 0e3d fd66 5dbd 12d5 003d 3014 9fbc
000001c0: d51f ffbc 47c7 e4bb 8b10 89bc 251e 80be
000001d0: 482e 81bc 7762 c13d d426 0c3e d1bb f63d
000001e0: a2d1 d03c 78e0 3d3d 8b93 babc 43b9 013d
000001f0: ee69 a1bd 0e64 91bd b00f 0f3d 088e dcbd
00000200: 26c0 10be d85c 69be 7291 c43d 671b 133d
00000210: ac4d 59bd a94e b33d b85a 0a3d 3379 bb3d
00000220: b424 bc3c ca65 42bd 538f 4fbd 0bdc f8bc
00000230: e230 3abd 35ab 4bbe ed40 173e 6733 563e
00000240: b946 5a3d f99e bfbd 9302 373e 9bd0 11be
00000250: d262 38bd 2036 71ba 5618 d8bd 40dc b5bc
00000260: 1e86 4ebd 25aa bfbd 3bd3 753d 65b1 74be
00000270: 5c1a d03c 56aa 243a 5561 88bd e0f2 0e3e
00000280: 526c 123c 67c5 9ebc 79c7 4b3d ed55 29be
00000290: e271 c1bd 8d05 353c be3a 153e 6be7 6cbd
000002a0: 5070 19bd bc04 a33e b665 253d 4121 383b
000002b0: 4ac2 3fbd 9100 9f3b 0e3b cdbc c15b 67bd
000002c0: 211e c8bb 7e66 423c d77c 98bd 8612 febd
000002d0: 8e78 73be bc89 a93c 0a52 983e 9f14 333e
000002e0: 46ea c93d 234f 6dbd 8f61 27be b0e2 39bc
000002f0: 50ab 75bd afed e1bd e10a c93c b05b 5dbe
00000300: bba1 53bc 8f03 943e 3d08 30be 5bd0 b3be
00000310: cd75 5fbf 1a98 0cbe f39f 73be a171 84bd
00000320: 4f11 b6bd 3d86 e83d 97a5 31be 8179 493d
00000330: 8ae7 08bf 7f5c 113d 5747 b2be 9afd 40be
00000340: 9066 d1bd 2c81 3c3e bade 023d d1c9 b43e
00000350: 0ba4 bdbe 7b3c 66be 6771 333d fff7 f83d
00000360: 0f47 10be dc00 8c3e d2d8 58bd 9fe6 dd3d
00000370: e58d 02be 6781 913e 4018 7c3e 02e9 97be
00000380: ed93 c53c 94cc 13be 8c98 31be 7e85 023d
00000390: cf28 2f3c 6066 b03d 0ffd d2be 704f 263e
000003a0: b715 2b3e 2dda 2ebe ea24 0abf cf80 24be
000003b0: 77cc e3ba 5e0a 55bc bbd2 133e 301b 39be
000003c0: 55e2 0f3e 5eb1 75be 36a6 30bf 3480 2f3e
000003d0: c4df 483e 53c5 62bf 69e1 f1bd d39b bebd
000003e0: bb33 59be 6390 1abf f376 7e3d 53ac 72be
000003f0: 1c61 613a 1794 193e 94a6 1dbe 3af6 613e
-0.13236366 -0.18722634 0.11156988 0.05003244 -0.003936296 0.051966287 0.13707429 0.104781
-0.008268222 -0.0013166952 -0.015486619 0.035170194 0.039512333 -0.12806262 0.08133199 0.19160345
-0.11643347 -0.015541883 0.13715376 -0.14297009 0.06304247 0.0815436 -0.03065357 0.05199851
0.009192888 -0.025825193 -0.009636079 -0.13371678 0.022998784 -0.063868426 -0.16577528 0.10804465
0.050201382 0.059971657 0.0398259 -0.16351111 -0.08605538 0.040757798 0.053496003 -0.07200176
-0.15947866 0.25591138 -0.0008545123 0.016413651 -0.07442395 -0.025598595 0.07968655 -0.020523984
-0.029807368 0.14000055 -0.020099595 -0.114919744 -0.21669687 0.048469204 0.35352138 0.13332553
0.014797693 -0.010274267 -0.09425042 -0.06276423 -0.07931324 -0.13158952 0.13308804 -0.2527586
-0.008939083 -0.17550685 0.058661774 -0.0010938122 0.00020688385 0.12136069 0.061831523 0.15885967
0.0105957575 -0.11718616 -0.0138029475 0.014677746 0.026728937 -0.0760585 0.12295565 0.23459327
0.028232874 -0.027759 0.11886925 -0.24410197 -0.0032470631 -0.03881664 -0.07208149 0.031169267
0.019663408 -0.093560696 0.08499398 -0.11207838 0.05513349 -0.021360224 -0.01678025 0.12654093
-0.06480255 -0.040849283 0.0931454 -0.25519896 -0.019241279 0.03579603 0.09426631 0.071153544
-0.122456565 0.29567608 0.03663351 0.014154634 0.034700036 -0.054053295 0.0314532 -0.019418806
-0.031143108 -0.0069817635 -0.016731521 -0.25022998 -0.015769139 0.09442609 0.13686687 0.12047542
0.025490586 0.04635665 -0.022775432 0.03167082 -0.078815326 -0.07099162 0.03492707 -0.10769278
-0.14135799 -0.22789323 0.09598054 0.035914805 -0.05305259 0.087552376 0.033777922 0.09153976
0.02296672 -0.047460355 -0.050673794 -0.030378362 -0.045456775 -0.19889529 0.14770861 0.20918046
0.053290103 -0.093564935 0.17872076 -0.14239733 -0.045016117 -0.00092014857 -0.10551517 -0.02219975
-0.050420873 -0.09358624 0.0600159 -0.23895796 0.025403194 0.00062814855 -0.066591896 0.13959837
0.008936958 -0.019381238 0.04975078 -0.16536684 -0.094455495 0.011048687 0.1457319 -0.057837885
-0.037460625 0.3183955 0.040380202 0.0028095993 -0.046816148 0.0048523624 -0.025052574 -0.056483988
-0.0061071073 0.011865256 -0.07445686 -0.12405877 -0.23776457 0.02069556 0.2975009 0.17488335
0.09859137 -0.0579368 -0.1634581 -0.01134555 -0.05997783 -0.11031663 0.02454132 -0.21617007
-0.0129169775 0.28908965 -0.17190643 -0.351199 -0.87289125 -0.13729897 -0.23791485 -0.064669855
-0.0889002 0.11353729 -0.17348324 0.04918814 -0.534783 0.0354886 -0.34820053 -0.18846741
-0.1022464 0.1840865 0.03195069 0.35310224 -0.37039217 -0.22484009 0.04380932 0.121566765
-0.14089607 0.27344406 -0.05294115 0.10835003 -0.12749441 0.2841904 0.24618626 -0.29669958
0.024118388 -0.14433509 -0.17343348 0.03186559 0.010690882 0.086132765 -0.41208693 0.1624124
0.16707502 -0.17075415 -0.53962576 -0.16064762 -0.0017379661 -0.01300296 0.14435856 -0.18076777
0.14051183 -0.23993441 -0.6900362 0.1713875 0.1961661 -0.8858234 -0.11810572 -0.09307065
-0.2121114 -0.60376567 0.062125158 -0.23698549 0.0008597539 0.14997898 -0.15395576 0.22066584

model.2.bias f4 [32]
00000000: a6b5 a73d 9b8c 903d ee51 223e fbbe a3bd
00000010: 4f78 b13d 9aa9 ebbe 2377 a6be 22a8 56be
00000020: 0ab7 c43d 3cf9 11be 4b4c 3cbe c4cf f83b
00000030: f855 28be 3fb4 36bf 8f0d 07bf ed61 993d
00000040: 5729 113b 19f9 53bf b822 56be a2d4 debe
00000050: 6440 d7be a04f ae3e 4033 9ebe ffbb 8abe
00000060: 1582 a43e 5760 20bf 03e6 64be b832 35bd
00000070: f9e2 6bbe b455 35bf 69c7 39bf 5709 04be
0.081889436 0.07058068 0.15851566 -0.07995411 0.08665525 -0.46027833 -0.3251277 -0.20962575
0.096052244 -0.14255232 -0.18388478 0.007593127 -0.16439044 -0.71368784 -0.52755064 0.07489381
0.0022149885 -0.8280197 -0.20911682 -0.435216 -0.42041314 0.34045124 -0.30898476 -0.27096555
0.32130495 -0.62647 -0.22353368 -0.044237822 -0.23035802 -0.708339 -0.725699 -0.12894188

model.5.weight f4 [16, 32]
00000000: 0157 50bd 8834 adbd 527c 4fbd 8d89 1a3e
00000010: 75d3 88bd 1111 453c 50d8 1a3c 1e4b a1bc
00000020: 9558 bebd 65f8 723c 55ff c0bc 04d0 56bd
00000030: 857b 9f3c 91c6 b5bd 1e51 97bb 8cf9 a0bd
00000040: 49ed f53d 71ac 19be f07e 8e3c 3b66 873c
00000050: 18f8 593c 8e1e 673b f132 0dbc 9b06 083d
00000060: ed4f b5bb 7f3d d1bd a1dd 60bd 5b3a a6bd
00000070: cd65 88bd b861 17be 551a d5bd 8ca1 033e
00000080: 00d3 453c 745c 4d3c d4d8 873c fa40 a3bd
00000090: baab 9639 fde2 423e 81ac 523e 69b3 a33d
000000a0: aa10 31ba a377 b33d 910c c03d 008e 1b3d
000000b0: b5ef 863c 9295 2f3f 46dc c43e ad96 d83b
000000c0: f19a e6bd f459 673f 1ea7 343d 8fbf 803e
000000d0: fab8 483d a430 e0b9 5a18 273d 6b83 813d
000000e0: 6301 90bb a350 433f 2106 133d c104 a43b
000000f0: e206 0e3d 5ddc 6e3f 47fc 4a3f 9da3 a73d
00000100: 1507 083c d69c b53c beeb 1b3b eaa7 f1bd
00000110: be5b 03bc ae57 083e 2d3b 043e 9e21 843d
00000120: d7b8 0f3d 137c 303d 22b5 5b3d 4527 533b
00000130: 9416 883c 7c4e 073f b60e 843e a24f cf3c
00000140: 467e 1ebe 8a61 4c3f f0fd 9c3d d80b be3d
00000150: 8442 523c 3ea6 67bc 4b81 f03c eb0f 5b3d
00000160: a052 b6b7 e39f 153f e3d6 e43c be6c 2339
00000170: 6ff0 933d 0890 343f ff80 263f 8bd4 3ebc
00000180: 6cf3 d1bd 3d08 65bd 92ed d1bd ba1b 7f3f
00000190: 91b2 edbd da1f 0640 3e3d 0740 5b65 303e
000001a0: 9338 13be 768d ba3e 7e46 6d3e 407a 8ebd
000001b0: a4cf 8b3e 5dc4 1840 418a 2340 3c42 d1bd
000001c0: 7796 f43e 6b1c 1c40 ccb6 c93e d2dd 1d40
000001d0: 0ba5 0440 63e3 3bbf 6dce 6a3e d76f 1340
000001e0: 0f5f 2abf 31e0 0e40 43f7 ee3d 9ad3 c0bd
000001f0: a4f4 843d caae 3240 78ef 1940 bd87 0440
00000200: 6a37 9ebd b3e8 d1bd 0d0c bfbd bb23 733f
00000210: 5300 81bd 2de9 0940 3820 0440 7b8e 583e
00000220: 3089 3abd e6d7 b43e 308b 913e 6890 2dbd
00000230: c37c 8a3e f12a 1840 0ae2 3140 cb23 9abd
00000240: be25 fa3e 9a45 1740 1601 e23e 1007 1f40
00000250: e53d 0c40 bbaf 36bf ca0c 283e 7a1d 2640
00000260: 9150 19bf f597 0d40 ab2d 073e ed1c 6fbd
00000270: 462e d63c 6a1f 2a40 535c 1540 354a fe3f
00000280: 02dc c9ba ee87 ca3c b4c8 663c 5d77 76bd
00000290: 9490 12bc c86d 863e e74f 533e f7fd 973d
000002a0: 10cc fdba 30d2 e23d be0f 213d 94c8 eb3b
000002b0: bdc5 6d3d f75c 383f df84 ab3e c699 2d3c
000002c0: 25a3 f6bd cfcb 853f aae2 b73c 2efd 7f3e
000002d0: 1b3f db3d d5c2 a33b 83d9 d23d e637 c13d
000002e0: fb6a 953c e161 3e3f 5f36 2f3d 3889 603c
000002f0: 6f96 aeb9 675e 6e3f c594 473f 2b04 fd3c
00000300: cc03 c6bd 06c1 5fbd 3d98 e5bd 5697 7e3f
00000310: a157 9ebd c66f 0740 2ab7 0340 7b87 1e3e
00000320: 4d66 f2bc c24e 883e 3ef8 963e 3340 dcbd
00000330: 7392 643e cd0d 1840 2b2f 2640 3255 88bd
00000340: 1967 df3e 39c4 1740 9494 bd3e 075f 1d40
00000350: c5ad 0540 496b 33bf 1278 7e3e da80 1a40
00000360: 633b 24bf 4e47 0a40 9b04 c73d 9c0d 3ebd
00000370: 1a22 753d 1ddd 2940 7b88 1640 00c4 0040
00000380: 7b21 26bf e878 15bf 04a2 41bf edcd d23d
00000390: dd78 3ebf 54a7 9a3d 1eca d03c b37f 673d
000003a0: b151 24bf 31c0 913d a830 593d e43a 1abf
000003b0: 58e6 6f3c beea 263e bd4b 043e 6132 5bbf
000003c0: 8eca 9d3e b5e3 fa3d 0826 683d e01f 063e
000003d0: aff2 863c f157 29bd d6e7 dd3d ff10 8bbc
000003e0: 758c 6439 30ce 133e fe5a 49bd 8162 30bf
000003f0: 7628 13bd dcd4 163e c1f3 ed3d 2dd6 d73d
-0.050864223 -0.08457285 -0.05065567 0.15091534 -0.06680957 0.012027995 0.009450987 -0.019689139
-0.092942394 0.01482973 -0.023559252 -0.052444473 0.019468078 -0.08875764 -0.004617824 -0.07860097
0.12008149 -0.15007187 0.017394513 0.01652824 0.013303779 0.0035266015 -0.008618102 0.033209424
-0.0055332095 -0.102168076 -0.05489886 -0.08116599 -0.06660042 -0.1478337 -0.10405413 0.12854594
0.012074232 0.01253425 0.016582884 -0.07971378 0.00028738176 0.19031902 0.20573618 0.07993204
-0.00067544973 0.08763053 0.09377397 0.03797722 0.016471723 0.685876 0.38449305 0.006609759
-0.112600215 0.9037163 0.044104688 0.25146148 0.049004532 -0.0004276085 0.040794708 0.06323894
-0.0043946966 0.76294917 0.035894517 0.0050054495 0.034674533 0.93305 0.79291195 0.08185504
0.00830247 0.022169512 0.0023791636 -0.11799605 -0.0080174785 0.13314697 0.12913199 0.064517245
0.035088386 0.043087076 0.05363954 0.0032219451 0.016612329 0.5285413 0.25792474 0.025306527
-0.15477857 0.7983633 0.07665622 0.09279603 0.012833241 -0.014138756 0.029358527 0.053481977
-2.1734566e-05 0.5844709 0.027934497 0.00015585401 0.072235934 0.70532274 0.6504058 -0.011647354
-0.10251507 -0.05591606 -0.10250391 0.9965168 -0.116063245 2.095694 2.113113 0.17226164
-0.1437705 0.3643605 0.23171422 -0.06956911 0.27306855 2.386985 2.5553133 -0.10217711
0.47771046 2.4392345 0.39397275 2.4666638 2.0725734 -0.7339384 0.22930308 2.3037012
-0.665513 2.2324336 0.11668255 -0.0941536 0.06491974 2.7919183 2.405241 2.0707848
-0.07725413 -0.10249462 -0.093284704 0.94976395 -0.0629889 2.154857 2.0644665 0.21148102
-0.04554099 0.35320967 0.28426504 -0.042374045 0.2704831 2.377621 2.7794213 -0.07526358
0.4885692 2.3636231 0.44141454 2.484806 2.1912777 -0.71361893 0.16411129 2.595549
-0.5988856 2.2123997 0.13201015 -0.058377195 0.026145112 2.6581674 2.33376 1.9866396
-0.001540065 0.02472302 0.014085937 -0.060172427 -0.008945603 0.2625563 0.20635949 0.07421487
-0.0019363184 0.11075246 0.039321654 0.0071955416 0.058049906 0.72016853 0.3349981 0.0105957445
-0.12042836 1.0452822 0.022446949 0.24998924 0.10705396 0.004997591 0.10295393 0.0943449
0.018239489 0.743681 0.04277646 0.0137045905 -0.00033299948 0.93112797 0.7796138 0.030885777
-0.09668693 -0.05462744 -0.11210678 0.9944967 -0.07731558 2.116197 2.0580544 0.15481369
-0.029589796 0.26622587 0.2948627 -0.107544325 0.22321491 2.3758423 2.596629 -0.06656875
0.43633345 2.3713515 0.3702742 2.458925 2.088731 -0.7008558 0.2485049 2.4141145
-0.64153117 2.160602 0.09717675 -0.046399698 0.059846975 2.6541207 2.35208 2.011963
-0.6489484 -0.58387613 -0.7563784 0.102931835 -0.7440317 0.075514466 0.025487002 0.056518268
-0.6418715 0.07116736 0.053024918 -0.6024611 0.014642321 0.16300485 0.12919517 -0.8562375
0.308186 0.12250463 0.056676894 0.13098097 0.016473142 -0.041343633 0.10835235 -0.016975878
0.00021796099 0.14434123 -0.049159043 -0.68900305 -0.03592726 0.14729637 0.11618758 0.10538898

model.5.bias f4 [16]
00000000: ea2a e53d 420c 413e 1582 ce3d a50a 04c0
00000010: 0c51 08c0 3771 3f3e 5ea8 09c0 6e2b 0c3f
00000020: 1a29 323e 48ed 0dc0 ae9f 0bc0 e1bc 6b3e
00000030: a5bb ed3d f53b 09c0 c7a7 09c0 13b7 00c0
0.11189826 0.18852332 0.10083405 -2.0631497 -2.1299467 0.18695532 -2.1509013 0.5475377
0.17398492 -2.2176075 -2.181621 0.2302127 0.11608056 -2.1442845 -2.1508653 -2.011174

model.8.weight f4 [1, 16]
00000000: 6d48 9abe cdbd 733e 825c 933e bae3 41be
00000010: 63fd 54be 5bdd 7b3e 58c4 48be 65ea efbd
00000020: b2bf 68be 9c26 4dbe fe80 54be 770d 703e
00000030: c160 91be 7236 3cbe acf9 3dbe 81ae 4abe
-0.3013338 0.23802872 0.28781515 -0.18934527 -0.20799784 0.24596159 -0.19606149 -0.11714629
-0.22729376 -0.2003426 -0.20752332 0.23442636 -0.2839413 -0.18380144 -0.18552274 -0.1979313
